train log：

train: 
(16601, 112, 92)
test: 
(4146, 112, 92)
13280 train samples
3321 valid samples
4146 test samples
Train on 13280 samples, validate on 3321 samples
_________________________________________________________________
Layer (type)                 Output Shape              Param #   
=================================================================
conv2d_21 (Conv2D)           (None, 112, 92, 32)       320       
_________________________________________________________________
activation_31 (Activation)   (None, 112, 92, 32)       0         
_________________________________________________________________
conv2d_22 (Conv2D)           (None, 110, 90, 32)       9248      
_________________________________________________________________
activation_32 (Activation)   (None, 110, 90, 32)       0         
_________________________________________________________________
max_pooling2d_11 (MaxPooling (None, 55, 45, 32)        0         
_________________________________________________________________
dropout_16 (Dropout)         (None, 55, 45, 32)        0         
_________________________________________________________________
conv2d_23 (Conv2D)           (None, 55, 45, 64)        18496     
_________________________________________________________________
activation_33 (Activation)   (None, 55, 45, 64)        0         
_________________________________________________________________
conv2d_24 (Conv2D)           (None, 53, 43, 64)        36928     
_________________________________________________________________
activation_34 (Activation)   (None, 53, 43, 64)        0         
_________________________________________________________________
max_pooling2d_12 (MaxPooling (None, 26, 21, 64)        0         
_________________________________________________________________
dropout_17 (Dropout)         (None, 26, 21, 64)        0         
_________________________________________________________________
flatten_6 (Flatten)          (None, 34944)             0         
_________________________________________________________________
dense_11 (Dense)             (None, 512)               17891840  
_________________________________________________________________
activation_35 (Activation)   (None, 512)               0         
_________________________________________________________________
dropout_18 (Dropout)         (None, 512)               0         
_________________________________________________________________
dense_12 (Dense)             (None, 40)                20520     
_________________________________________________________________
activation_36 (Activation)   (None, 40)                0         
=================================================================
Total params: 17,977,352
Trainable params: 17,977,352
Non-trainable params: 0
_________________________________________________________________
Epoch 1/40
13280/13280 [==============================] - 101s - loss: 2.6623 - acc: 0.2712 - val_loss: 0.7670 - val_acc: 0.8254
Epoch 2/40
13280/13280 [==============================] - 99s - loss: 0.6146 - acc: 0.8000 - val_loss: 0.1111 - val_acc: 0.9792
…
