train log：

train: 
(10262, 64, 64)
test: 
(1292, 64, 64)
8209 train samples
2053 valid samples
1292 test samples
_________________________________________________________________
Layer (type)                 Output Shape              Param #   
=================================================================
conv2d_17 (Conv2D)           (None, 64, 64, 32)        320       
_________________________________________________________________
activation_25 (Activation)   (None, 64, 64, 32)        0         
_________________________________________________________________
conv2d_18 (Conv2D)           (None, 62, 62, 32)        9248      
_________________________________________________________________
activation_26 (Activation)   (None, 62, 62, 32)        0         
_________________________________________________________________
max_pooling2d_9 (MaxPooling2 (None, 31, 31, 32)        0         
_________________________________________________________________
dropout_13 (Dropout)         (None, 31, 31, 32)        0         
_________________________________________________________________
conv2d_19 (Conv2D)           (None, 31, 31, 64)        18496     
_________________________________________________________________
activation_27 (Activation)   (None, 31, 31, 64)        0         
_________________________________________________________________
conv2d_20 (Conv2D)           (None, 29, 29, 64)        36928     
_________________________________________________________________
activation_28 (Activation)   (None, 29, 29, 64)        0         
_________________________________________________________________
max_pooling2d_10 (MaxPooling (None, 14, 14, 64)        0         
_________________________________________________________________
dropout_14 (Dropout)         (None, 14, 14, 64)        0         
_________________________________________________________________
flatten_5 (Flatten)          (None, 12544)             0         
_________________________________________________________________
dense_9 (Dense)              (None, 512)               6423040   
_________________________________________________________________
activation_29 (Activation)   (None, 512)               0         
_________________________________________________________________
dropout_15 (Dropout)         (None, 512)               0         
_________________________________________________________________
dense_10 (Dense)             (None, 68)                34884     
_________________________________________________________________
activation_30 (Activation)   (None, 68)                0         
=================================================================
Total params: 6,522,916
Trainable params: 6,522,916
Non-trainable params: 0
_________________________________________________________________
Epoch 1/100
8209/8209 [==============================] - 23s - loss: 4.1946 - acc: 0.0206 - val_loss: 4.0815 - val_acc: 0.0502
Epoch 2/100
8209/8209 [==============================] - 22s - loss: 3.6200 - acc: 0.1363 - val_loss: 1.9657 - val_acc: 0.5153
…
