
train log：

train: 
(26846, 128, 128, 3)
test: 
(3255, 128, 128, 3)
21476 train samples
5370 valid samples
3255 test samples
_________________________________________________________________
Layer (type)                 Output Shape              Param #   
=================================================================
conv2d_1 (Conv2D)            (None, 128, 128, 32)      896       
_________________________________________________________________
activation_1 (Activation)    (None, 128, 128, 32)      0         
_________________________________________________________________
conv2d_2 (Conv2D)            (None, 126, 126, 32)      9248      
_________________________________________________________________
activation_2 (Activation)    (None, 126, 126, 32)      0         
_________________________________________________________________
max_pooling2d_1 (MaxPooling2 (None, 63, 63, 32)        0         
_________________________________________________________________
dropout_1 (Dropout)          (None, 63, 63, 32)        0         
_________________________________________________________________
conv2d_3 (Conv2D)            (None, 63, 63, 64)        18496     
_________________________________________________________________
activation_3 (Activation)    (None, 63, 63, 64)        0         
_________________________________________________________________
conv2d_4 (Conv2D)            (None, 61, 61, 64)        36928     
_________________________________________________________________
activation_4 (Activation)    (None, 61, 61, 64)        0         
_________________________________________________________________
max_pooling2d_2 (MaxPooling2 (None, 30, 30, 64)        0         
_________________________________________________________________
dropout_2 (Dropout)          (None, 30, 30, 64)        0         
_________________________________________________________________
flatten_1 (Flatten)          (None, 57600)             0         
_________________________________________________________________
dense_1 (Dense)              (None, 512)               29491712  
_________________________________________________________________
activation_5 (Activation)    (None, 512)               0         
_________________________________________________________________
dropout_3 (Dropout)          (None, 512)               0         
_________________________________________________________________
dense_2 (Dense)              (None, 3)                 1539      
_________________________________________________________________
activation_6 (Activation)    (None, 3)                 0         
=================================================================
Total params: 29,558,819
Trainable params: 29,558,819
Non-trainable params: 0
_________________________________________________________________
E:\cs\Anaconda3\lib\site-packages\keras\models.py:837: UserWarning: The `nb_epoch` argument in `fit` has been renamed `epochs`.
  warnings.warn('The `nb_epoch` argument in `fit` '
Train on 21476 samples, validate on 5370 samples
…
